…
nHere, we can see 4 different classes, with 3 types of tumor and 1 no tumor. The objective of the deep learning models will have to be predict the correct class of any image passed. We have trained a vision transformer for classifying the brain-mri images.\n\n\n3. Vision Transformer\n\nfrom torchvision import models\nimport torch \n\ndevice = torch.device(\"cuda\" if torch.cuda.is_available() else \"cpu\")\nprint(f'Using device: {device}')\n\n# Load a pre-trained Vision Transformer\nmodel = models.vit_b_16(pretrained=False)\nprint(model) \n\nUsing device: cuda\nVisionTransformer(\n  (conv_proj): Conv2d(3, 768, kernel_size=(16, 16), stride=(16, 16))\n  (encoder): Encoder(\n    (dropout): Dropout(p=0.0, inplace=False)\n    (layers): Sequential(\n      (encoder_layer_0): EncoderBlock(\n        (ln_1): LayerNorm((768,), eps=1e-06, elementwise_affine=True)\n        (self_attention): MultiheadAttention(\n          (out_proj): NonDynamicallyQuantizableLinear(in_features=768, out_features=768, bias=True)\n        )\n        (dropout): Dropout(p=0.0, inplace=False)\n        (ln_2): LayerNorm((768,), eps=1e-06, elementwise_affine=True)\n        (mlp): MLPBlock(\n          (0): Linear(in_features=768, out_features=3072, bias=True)\n          (1): GELU(approximate='none')\n          (2): Dropout(p=0.0, inplace=False)\n          (3): Linear(in_features=3072, out_features=768, bias=True)\n          (4): Dropout(p=0.0, inplace=False)\n        )\n      )\n      (encoder_layer_1): EncoderBlock(\n        (ln_1): LayerNorm((768,), eps=1e-06, elementwise_affine=True)\n        (self_attention): MultiheadAttention(\n          (out_proj): NonDynamicallyQuantizableLinear(in_features=768, out_features=768, bias=True)\n        )\n        (dropout): Dropout(p=0.0, inplace=False)\n        (ln_2): LayerNorm((768,), eps=1e-06, elementwise_affine=True)\n        (mlp): MLPBlock(\n          (0): Linear(in_features=768, out_features=3072, bias=True)\n          (1): GELU(approximate='none')\n          (2): Dropout(p=0.0, inplace=False)\n          (3): Linear(in_features=3072, out_features=768, bias=True)\n          (4): Dropout(p=0.0, inplace=False)\n        )\n      )\n      (encoder_layer_2): EncoderBlock(\n        (ln_1): LayerNorm((768,), eps=1e-06, elementwise_affine=True)\n        (self_attention): MultiheadAttention(\n          (out_proj): NonDynamicallyQuantizableLinear(in_features=768, out_features=768, bias=True)\n        )\n        (dropout): Dropout(p=0.0, inplace=False)\n        (ln_2): LayerNorm((768,), eps=1e-06, elementwise_affine=True)\n        (mlp): MLPBlock(\n          (0): Linear(in_features=768, out_features=3072, bias=True)\n          (1): GELU(approximate='none')\n          (2): Dropout(p=0.0, inplace=False)\n          (3): Linear(in_features=3072, out_features=768, bias=True)\n          (4): Dropout(p=0.0, inplace=False)\n        )\n      )\n      (encoder_layer_3): EncoderBlock(\n        (ln_1): LayerNorm((768,), eps=1e-06, elementwise_affine=True)\n        (self_attention): MultiheadAttention(\n          (out_proj): NonDynamicallyQuantizableLinear(in_features=768, out_features=768, bias=True)\n        )\n        (dropout): Dropout(p=0.0, inplace=False)\n        (ln_2): LayerNorm((768,), eps=1e-06, elementwise_affine=True)\n        (mlp): MLPBlock(\n          (0): Linear(in_features=768, out_features=3072, bias=True)\n          (1): GELU(approximate='none')\n          (2): Dropout(p=0.0, inplace=False)\n          (3): Linear(in_features=3072, out_features=768, bias=True)\n          (4): Dropout(p=0.0, inplace=False)\n        )\n      )\n      (encoder_layer_4): EncoderBlock(\n        (ln_1): LayerNorm((768,), eps=1e-06, elementwise_affine=True)\n        (self_attention): MultiheadAttention(\n          (out_proj): NonDynamicallyQuantizableLinear(in_features=768, out_features=768, bias=True)\n        )\n        (dropout): Dropout(p=0.0, inplace=False)\n        (ln_2): LayerNorm((768,), eps=1e-06, elementwise_affine=True)\n        (mlp): MLPBlock(\n          (0): Linear(in_features=768, out_features=3072, bias=True)\n          (1): GELU(approximate='none')\n          (2): Dropout(p=0.0, inplace=False)\n          (3): Linear(in_features=3072, out_features=768, bias=True)\n          (4): Dropout(p=0.0, inplace=False)\n        )\n      )\n      (encoder_layer_5): EncoderBlock(\n        (ln_1): LayerNorm((768,), eps=1e-06, elementwise_affine=True)\n        (self_attention): MultiheadAttention(\n          (out_proj): NonDynamicallyQuantizableLinear(in_features=768, out_features=768, bias=True)\n        )\n        (dropout): Dropout(p=0.0, inplace=False)\n        (ln_2): LayerNorm((768,), eps=1e-06, elementwise_affine=True)\n        (mlp): MLPBlock(\n          (0): Linear(in_features=768, out_features=3072, bias=True)\n          (1): GELU(approximate='none')\n          (2): Dropout(p=0.0, inplace=False)\n          (3): Linear(in_features=3072, out_features=768, bias=True)\n          (4): Dropout(p=0.0, inplace=False)\n        )\n      )\n      (encoder_layer_6): EncoderBlock(\n        (ln_1): LayerNorm((768,), eps=1e-06, elementwise_affine=True)\n        (self_attention): MultiheadAttention(\n          (out_proj): NonDynamicallyQuantizableLinear(in_features=768, out_features=768, bias=True)\n        )\n        (dropout): Dropout(p=0.0, inplace=False)\n        (ln_2): LayerNorm((768,), eps=1e-06, elementwise_affine=True)\n        (mlp): MLPBlock(\n          (0): Linear(in_features=768, out_features=3072, bias=True)\n          (1): GELU(approximate='none')\n          (2): Dropout(p=0.0, inplace=False)\n          (3): Linear(in_features=3072, out_features=768, bias=True)\n          (4): Dropout(p=0.0, inplace=False)\n        )\n      )\n      (encoder_layer_7): EncoderBlock(\n        (ln_1): LayerNorm((768,), eps=1e-06, elementwise_affine=True)\n        (self_attention): MultiheadAttention(\n          (out_proj): NonDynamicallyQuantizableLinear(in_features=768, out_features=768, bias=True)\n        )\n        (dropout): Dropout(p=0.0, inplace=False)\n        (ln_2): LayerNorm((768,), eps=1e-06, elementwise_affine=True)\n        (mlp): MLPBlock(\n          (0): Linear(in_features=768, out_features=3072, bias=True)\n          (1): GELU(approximate='none')\n          (2): Dropout(p=0.0, inplace=False)\n          (3): Linear(in_features=3072, out_features=768, bias=True)\n          (4): Dropout(p=0.0, inplace=False)\n        )\n      )\n      (encoder_layer_8): EncoderBlock(\n        (ln_1): LayerNorm((768,), eps=1e-06, elementwise_affine=True)\n        (self_attention): MultiheadAttention(\n          (out_proj): NonDynamicallyQuantizableLinear(in_features=768, out_features=768, bias=True)\n        )\n        (dropout): Dropout(p=0.0, inplace=False)\n        (ln_2): LayerNorm((768,), eps=1e-06, elementwise_affine=True)\n        (mlp): MLPBlock(\n          (0): Linear(in_features=768, out_features=3072, bias=True)\n          (1): GELU(approximate='none')\n          (2): Dropout(p=0.0, inplace=False)\n          (3): Linear(in_features=3072, out_features=768, bias=True)\n          (4): Dropout(p=0.0, inplace=False)\n        )\n      )\n      (encoder_layer_9): EncoderBlock(\n        (ln_1): LayerNorm((768,), eps=1e-06, elementwise_affine=True)\n        (self_attention): MultiheadAttention(\n          (out_proj): NonDynamicallyQuantizableLinear(in_features=768, out_features=768, bias=True)\n        )\n        (dropout): Dropout(p=0.0, inplace=False)\n        (ln_2): LayerNorm((768,), eps=1e-06, elementwise_affine=True)\n        (mlp): MLPBlock(\n          (0): Linear(in_features=768, out_features=3072, bias=True)\n          (1): GELU(approximate='none')\n          (2): Dropout(p=0.0, inplace=False)\n          (3): Linear(in_features=3072, out_features=768, bias=True)\n          (4): Dropout(p=0.0, inplace=False)\n        )\n      )\n      (encoder_layer_10): EncoderBlock(\n        (ln_1): LayerNorm((768,), eps=1e-06, elementwise_affine=True)\n        (self_attention): MultiheadAttention(\n          (out_proj): NonDynamicallyQuantizableLinear(in_features=768, out_features=768, bias=True)\n        )\n        (dropout): Dropout(p=0.0, inplace=False)\n        (ln_2): LayerNorm((768,), eps=1e-06, elementwise_affine=True)\n        (mlp): MLPBlock(\n          (0): Linear(in_features=768, out_features=3072, bias=True)\n          (1): GELU(approximate='none')\n          (2): Dropout(p=0.0, inplace=False)\n          (3): Linear(in_features=3072, out_features=768, bias=True)\n          (4): Dropout(p=0.0, inplace=False)\n        )\n      )\n      (encoder_layer_11): EncoderBlock(\n        (ln_1): LayerNorm((768,), eps=1e-06, elementwise_affine=True)\n        (self_attention): MultiheadAttention(\n          (out_proj): NonDynamicallyQuantizableLinear(in_features=768, out_features=768, bias=True)\n        )\n        (dropout): Dropout(p=0.0, inplace=False)\n        (ln_2): LayerNorm((768,), eps=1e-06, elementwise_affine=True)\n        (mlp): MLPBlock(\n          (0): Linear(in_features=768, out_features=3072, bias=True)\n          (1): GELU(approximate='none')\n          (2): Dropout(p=0.0, inplace=False)\n          (3): Linear(in_features=3072, out_features=768, bias=True)\n          (4): Dropout(p=0.0, inplace=False)\n        )\n      )\n    )\n    (ln): LayerNorm((768,), eps=1e-06, elementwise_affine=True)\n  )\n  (heads): Sequential(\n    (head): Linear(in_features=768, out_features=1000, bias=True)\n  )\n)\n\n\nFor this experiment, we used the vit_b_16 model. A key part of this procedure was implementing a robust data augmentation pipeline for the training set. This artificially expands the dataset and makes the model more resilient by teaching it to recognize tumors even if the images are:\n\nFlipped horizontally (RandomHorizontalFlip)\nSlightl
…
